models/fashion_mnist_checkpoint.pth (torch_old, 978046 bytes, 16 tensors)

weight f4 [256, 784]
000000 bb c4 10 3d 99 a5 98 3d ce 47 a4 3d df fe 84 3c
       0.035343867 0.0745346 0.08021508 0.016234813
000010 c3 85 92 3d 12 27 91 3d 74 21 89 3a 0e 0e 4c 3d
       0.07154419 0.0708753 0.001046224 0.04981809
000020 35 dc 0f 3e 23 cd 3c 3e f2 b5 ec 3e fd 95 11 3f
       0.14048846 0.18437628 0.46232563 0.5686949
000030 32 64 b2 3d 80 6a 23 be 45 7b a9 bd 4b 76 b5 3c
       0.08710517 -0.15958595 -0.08275465 0.022151133
000040 ba ff 09 3f 8c 12 cd 3e 93 48 55 3e 37 18 5d 3e
       0.5390583 0.40053213 0.20828466 0.21591268
000050 2e 29 29 3e a7 70 84 3d fe 65 97 3d e6 f9 c8 3c
       0.16519615 0.06466799 0.073925 0.024533223
000060 f4 be 89 3d 69 2d 2b 3d 4d 36 89 3d 32 8b f4 3c
       0.067258745 0.041791353 0.0669981 0.02985153
000070 48 c7 5e 3d 6e c1 8d 3d e8 0c 30 3d 0b a0 b9 bc
       0.05438927 0.069216594 0.04298106 -0.022659322
000080 91 45 8f bb 53 dc a1 bd 92 44 6f be 6e a6 75 be
       -0.0043723066 -0.07903352 -0.23366001 -0.23989269
000090 7d 8b 3e bd e0 4b cd 3d b5 74 22 be 51 88 1c 3e
       -0.046519745 0.10024238 -0.15864833 0.15286376
0000a0 54 df fc 3c 25 20 2b bd 28 28 a5 3d f9 e6 7c be
       0.03086821 -0.041778702 0.080643 -0.24697484
0000b0 b7 86 ae 3e a0 1b f2 3e 16 27 a8 3e 26 c9 c1 3d
       0.34087154 0.472867 0.3284232 0.09462194
0000c0 42 e9 89 bd ae 61 b5 bd b3 47 06 be a4 3d 20 bd
       -0.067339435 -0.088565215 -0.13113289 -0.039121285
0000d0 9a bf 73 bd 5d f1 45 3c b1 4f 83 3d ed e8 89 3d
       -0.059508897 0.012081471 0.06411684 0.0673388
0000e0 c3 37 62 3d 49 db 6f 3d 18 3f ea 3c eb 4e cd bc
       0.05522896 0.058558736 0.028594539 -0.025062045
0000f0 a0 85 86 3a db 21 cb bd f3 41 a9 bd c1 76 c5 3c
       0.0010263212 -0.09918567 -0.08264532 0.024104478
000100 1f 4a 08 be ee e8 b5 be e4 b1 0a bd c3 c5 8c 3e
       -0.13309525 -0.35529274 -0.033861056 0.2749463
000110 d6 4f 1b 3e 1f 44 69 bd 03 52 57 be 8a 8b d6 bd
       0.15167174 -0.05694973 -0.21027379 -0.10475834
000120 6f 28 e8 3c 7c cd 60 3d 7d 91 0d bd 50 9c ce bd
       0.028339593 0.054883465 -0.034562577 -0.10088408
000130 08 7d fc 3d 7f 97 88 3c 41 30 ff bd 24 8c 83 bc
       0.12328535 0.016673801 -0.124603756 -0.016058035
000140 ef 68 61 bd a4 73 73 bc 6e 15 97 3d fb 9f 64 3d
       -0.055031713 -0.014859114 0.07377134 0.05581663
000150 e6 8a 9c 3d 30 f5 0a 3d 2e 1c 88 b9 bf ee 11 3d
       0.0764368 0.033925235 -0.00025960937 0.035628077
000160 98 b0 b2 3c 4f eb 8f 3d c4 6b 3d 3d a0 52 b2 3d
       0.021812722 0.070273034 0.04624535 0.08707166
000170 a8 72 82 3c 9a e9 69 3e 11 88 4f 3e 97 96 38 bd
       0.015923813 0.22843018 0.20266749 -0.04506549
000180 91 f3 d8 3d 09 95 0c be 0a 8a 96 be 80 3e 0b be
       0.105933316 -0.13728727 -0.2940219 -0.1359806
000190 f8 25 82 bd 19 93 b5 3e 08 1a 96 3e 4b 80 e2 bd
       -0.06354898 0.3546379 0.29316735 -0.11059626
0001a0 28 5d 15 bd 52 db c3 3d c8 4c 07 3d 25 15 8b 3c
       -0.036465794 0.095633164 0.03303221 0.016977856
0001b0 c6 08 85 3c a7 29 a0 bc 64 b3 b3 3c 88 aa 99 3c
       0.016239535 -0.019551111 0.021936126 0.018758073
0001c0 45 dc 0d 3c 3c 06 9f 3d e4 2d 39 3d 28 7f 7c 3d
       0.008658473 0.07764861 0.04520978 0.061644703
0001d0 d5 e6 5d 3d 3f 61 28 bc d7 e6 4e 3e 59 9c 14 3e
       0.054175217 -0.0102770915 0.20205246 0.14512767
0001e0 a2 8d 6a be f6 a1 36 3d 5b ef f1 bd 21 2a a3 be
       -0.22905591 0.04458805 -0.118132316 -0.3186808
0001f0 bb 4f 8c be f8 07 b7 bd 4e bc c1 be d5 5d 6d bd
       -0.2740458 -0.08937067 -0.37838978 -0.057950813
000200 24 2f c4 be b7 93 89 3c a6 15 9d 3d 47 e1 4a be
       -0.38317215 0.016794069 0.07670145 -0.19812499
000210 61 97 2a ba 97 89 30 3e 08 6f 91 3d 6b 15 17 3d
       -0.00065075426 0.17239986 0.07101256 0.03688566
000220 4c 0b 01 3d 42 c3 53 3b 66 35 16 bd c4 2b ed 3c
       0.031504914 0.0032312428 -0.03667202 0.028951533
000230 d6 a2 1b bc 90 9b 95 3c 72 a5 91 3d 31 c0 9e 3a
       -0.009499272 0.018262655 0.07111634 0.0012111721
000240 da 24 cb 3d cf 78 87 3d b7 b8 89 3e 34 19 87 3d
       0.09919138 0.06614839 0.2689874 0.06596604
000250 5a e4 24 be 9c a7 bb bb 7a fb 7f be 36 b1 03 be
       -0.16102734 -0.0057267677 -0.24998274 -0.1286057
000260 3c b8 55 3e c4 49 aa 3d 59 05 3c be d2 95 ab 3b
       0.20871061 0.08314851 -0.18361415 0.005236366
000270 73 06 43 be c0 ad 65 bd 2e 3b 00 be 9c c8 01 3c
       -0.19045429 -0.056073904 -0.12522575 0.007921364
000280 98 20 b9 bc 6f 61 fe bb 23 bc b4 3d d3 71 b9 bc
       -0.02259855 -0.00776308 0.08824947 -0.022637283
000290 82 97 42 bd 87 bb ee bc 6b 6c c7 bc 5c e1 14 3d
       -0.04750777 -0.029142154 -0.02434369 0.036347732
0002a0 11 42 23 3d ae 3b 94 3d 6e 2e c0 3d dd 3c 9c 3c
       0.039857928 0.072379455 0.09383856 0.01907199
0002b0 4e c4 e2 3c 39 55 50 3e fc e7 13 3e 33 a3 52 3d
       0.027681496 0.2034501 0.14443964 0.05142517
0002c0 6e 39 1b 3e 95 ff 01 3d c0 60 00 be b5 48 1f be
       0.15158626 0.031737883 -0.12536907 -0.1555508
0002d0 73 0d bf bd 24 91 8a 3c 5b 98 30 3c 84 35 43 3d
       -0.09328737 0.016914912 0.010778512 0.04765846
0002e0 d1 70 1f 3e 93 83 9a bc f9 03 33 be 4d fa 35 be
       0.1557038 -0.018861568 -0.17481984 -0.17771263
0002f0 3e 95 ba ba 84 de 37 be 3a 48 ee 3c f5 8b 29 bc
       -0.0014235151 -0.17955977 0.029087175 -0.01034831
000300 99 82 0a bc 69 2b 60 bc 4c 3d 5d bd 2a ff 36 3d
       -0.0084539885 -0.013682225 -0.054013535 0.044676937
000310 59 58 b9 3d 52 be 2c 3e 27 2b 2c 3e 3f e2 1c 3e
       0.09050054 0.16869476 0.16813336 0.15320681
000320 31 d5 d0 3d 00 2f 47 3e d2 5d a0 3e 60 53 c0 bd
       0.10196913 0.19451523 0.3132158 -0.093909025
000330 1e 69 e8 bd 83 24 5a 3d 88 6d 2f 3d fa cb 5b bd
       -0.113481745 0.053257477 0.042829067 -0.053661324
000340 81 1e 95 3d a0 d1 c3 3d ca 06 75 3e a6 86 57 3e
       0.07281209 0.09561467 0.23928371 0.21047458
000350 74 35 99 3e 07 04 ba bd 5c a2 52 be 04 ef 01 bd
       0.29923594 -0.090827994 -0.20569748 -0.031722084
000360 c7 07 25 be c0 88 45 bc 58 c2 fe 3d 94 8f f9 3c
       -0.16116248 -0.0120565295 0.12439412 0.030463971
000370 46 34 30 3c 35 ba c1 3c 14 2d 78 3d 94 bf 04 3c
       0.01075465 0.02364836 0.060589865 0.008102316
000380 f7 5e 9e 3d 15 5b 19 3e 67 56 0c 3e d1 ca 12 3e
       0.07732957 0.14976151 0.13704835 0.14335181
000390 5c bd 8a 3e af c9 5b 3e 75 0a 23 bd dd c9 e0 bd
       0.27097595 0.21463655 -0.039804894 -0.10976002
0003a0 69 ac 41 be c3 84 88 bc 76 a1 8c 3e f3 41 27 3e
       -0.18913426 -0.016664868 0.27466935 0.16333751
0003b0 f4 11 c2 3e 03 f7 0d 3e fd d5 e9 3d 8d de ac 3e
       0.37904322 0.13863759 0.11417768 0.33763543
0003c0 83 48 3b 3e 53 09 89 3e 3e 08 a7 bd 38 08 fd bd
       0.1828938 0.26764926 -0.08155869 -0.12355083
0003d0 68 8e 66 be d6 b1 27 bd fd c2 d1 3c 5c 94 80 bc
       -0.22515261 -0.040941082 0.025605673 -0.015695743
0003e0 ea d0 d6 3d 48 2a 3f 3d bd e5 52 3d b4 9c b3 bc
       0.10489066 0.046671182 0.051488627 -0.021925308
0003f0 81 f1 81 3c 0c fd 0a 3e 39 2c f6 3d b2 29 bd 3d
       0.015862228 0.13573092 0.120201536 0.092364684

bias f4 [256]
000000 51 4c b9 bd 43 17 97 bd 4f 11 3d bd 2d 7d 02 3b
       -0.09047759 -0.07377484 -0.046159085 0.0019911036
000010 ec cc 54 bc 1a 37 53 bc b8 69 40 bd 3b 2f 03 be
       -0.01298831 -0.012891555 -0.04697582 -0.12810986
000020 ad 25 9e bd 83 69 cb bd a9 e7 20 bd 0c 32 f8 bc
       -0.0772203 -0.09932234 -0.03928343 -0.030297302
000030 9f 38 93 bc 05 2d d0 bd 49 41 51 bd 19 5f 0f 3b
       -0.017971335 -0.10164837 -0.05108765 0.002187675
000040 1a 7d 02 be 8f d6 7c bd 12 5e c5 bd ae a4 27 bd
       -0.12743035 -0.061728057 -0.09637083 -0.040928535
000050 58 af 05 bd 03 02 4b bd 4a 1c 2a 3e 94 f6 6e bc
       -0.032637924 -0.049562465 0.16612354 -0.014585156
000060 c3 de ef bc 70 3e be bd 79 33 99 bd 38 69 0d be
       -0.029281026 -0.09289253 -0.07480521 -0.13809669
000070 da c8 cf bb e4 de 86 bd cb 29 05 be 04 c9 b1 bd
       -0.006341082 -0.06585482 -0.13004224 -0.08680919
000080 73 55 06 be 9f f1 22 be 82 ec 0e bd a7 79 3d bc
       -0.13118534 -0.15912484 -0.03489352 -0.011564649
000090 13 34 a7 bd b8 de 2c be e7 3f e7 bc 64 ae 40 bd
       -0.08164229 -0.16881835 -0.028228713 -0.04704131
0000a0 93 e1 30 bc 52 c3 d4 3d 24 dc 86 bd 64 20 61 bd
       -0.010795969 0.10388817 -0.06584957 -0.05496253
0000b0 83 fd 6f bd 74 c9 e2 3b af 41 74 bd 82 ee 5c bd
       -0.058591377 0.0069209877 -0.059632953 -0.053938396
0000c0 3c 68 c0 bd 68 03 99 bd 40 f8 a5 bd 70 cb 09 be
       -0.09394881 -0.07471353 -0.081039906 -0.13456511
0000d0 de 95 26 be d8 71 a1 bd 57 ab a8 bd b1 8c 8e bd
       -0.16268107 -0.07883042 -0.082358055 -0.069604285
0000e0 24 cf 0d bd 69 62 8d bd cd f5 41 bd 84 09 48 bd
       -0.034621373 -0.06903536 -0.047353555 -0.0488372
0000f0 66 ac 46 bc 9f b6 fe bd 7f 9e d4 bd e5 95 8e bd
       -0.012126064 -0.12437176 -0.10381793 -0.06962184
000100 2e a2 ed bd 2f 85 41 bc 0c 37 5e bd 78 a7 73 bd
       -0.11603199 -0.011811539 -0.054251716 -0.059485883
000110 6e 41 53 bc b2 23 fb bc a6 b4 d3 3c c3 a3 1d 3d
       -0.012894018 -0.03065667 0.025842976 0.038486253
000120 e4 f2 9a bd a1 02 a4 bd e4 67 25 3a 42 b3 5d bd
       -0.07565859 -0.08008314 0.00063097314 -0.05412603
000130 eb 62 dc bd 62 32 01 be 94 af 99 bd 4a d4 97 bd
       -0.107610546 -0.12616876 -0.07504192 -0.07413538
000140 cb b6 0b bd 38 e4 60 bd d9 0e cf bd 49 8e 4a bd
       -0.03410987 -0.054905146 -0.10110254 -0.0494521
000150 93 e7 3d bd 32 bd 31 be d5 89 53 bd a9 0d 65 bd
       -0.046363425 -0.17357329 -0.05164512 -0.05592123
000160 48 3d 86 bc 5d 06 ce bc 7d b7 8e bc 6e f6 26 bc
       -0.016386643 -0.025149519 -0.017421478 -0.010190589
000170 b8 12 9b 3d 4f 68 d9 bd ee 5c 9b bd 15 c6 f0 3d
       0.0757193 -0.106155984 -0.07586084 0.11756531
000180 ed 70 a6 bc 67 5e 58 bd 87 24 9e bd e7 80 b6 bd
       -0.02031752 -0.052824404 -0.07721811 -0.08911305
000190 de 93 b9 bd 52 32 fb 3d 81 4e 00 bd e9 19 bf bd
       -0.090614066 0.12265457 -0.031324867 -0.09331114
0001a0 9d 09 db 3d b7 22 2a bd 9a 31 95 bd 67 37 0f bd
       0.10695193 -0.041537013 -0.07284851 -0.034964945
0001b0 cd 25 98 bc 88 21 00 bd b7 41 0a be 8c 35 cc bb
       -0.018572712 -0.031281978 -0.1350163 -0.006231969
0001c0 16 83 3c bd e2 fc 47 bd 79 12 54 bd 1c 6f 84 bd
       -0.04602345 -0.048825152 -0.05177543 -0.06466505
0001d0 fd d7 99 bd dc 50 8a ba d0 b7 29 bd 08 61 0d bd
       -0.075118996 -0.0010552662 -0.041435063 -0.034516364
0001e0 65 30 d2 bc 53 95 0f be 49 ef d6 bd cd 4c 92 bd
       -0.025657842 -0.14021806 -0.10494859 -0.07143555
0001f0 42 4e 76 bc 94 ff 99 bd 7e ee 1b be e5 37 bb bd
       -0.015033307 -0.07519451 -0.15227696 -0.091415204
000200 2d 2f b6 bd 14 d3 10 3c 61 6a df bd 50 91 04 3d
       -0.08895717 0.008839387 -0.10908962 0.032365143
000210 5e d9 80 bd 59 6b 28 be 9f 4d de bc a0 85 19 bd
       -0.062914595 -0.164472 -0.027136622 -0.03748095
000220 f3 5f 90 bc d4 f3 22 bc 0f bb c5 bd 74 5a 58 3a
       -0.017623877 -0.0099458285 -0.09654819 0.00082532247
000230 aa a3 a6 bd 05 03 22 3d 57 5a 19 be 7d 88 fa bc
       -0.08136685 0.03955366 -0.14975868 -0.03058266
000240 5d 2f 3a be 02 39 43 bd 28 98 a8 3b ea 77 10 be
       -0.1818213 -0.04766179 0.0051450916 -0.14108244
000250 b8 7a 75 bd a2 34 da 3b 7e af 59 bb 76 bf d0 bd
       -0.059931487 0.0066591064 -0.0033216174 -0.10192768
000260 6e 7f 54 3c 36 9d 18 be da 5d 0a 3d f1 92 66 bd
       0.012969835 -0.14903721 0.03378091 -0.056292478
000270 d9 1b 5f bd b4 b7 f9 bc 38 c8 c7 3d 93 1e a2 38
       -0.054469917 -0.030483104 0.097549856 7.730457e-05
000280 e0 be f1 bd 12 5d 31 3d 5e 3b 7c bd 6c 12 0e be
       -0.11803985 0.04330165 -0.061580054 -0.13874215
000290 4d 04 03 be b4 aa 26 3c 53 1d 82 bd 6b 9c f0 bd
       -0.1279461 0.010172535 -0.063532494 -0.11748584
0002a0 80 53 e4 bd d5 3c af bd 52 5c 1d be 64 25 65 bd
       -0.11148739 -0.08556525 -0.15367249 -0.05594386
0002b0 e2 28 8a bc dc 6e ce bd b5 5f 2f 3d 08 36 b4 bc
       -0.016865198 -0.100797385 0.042815883 -0.02199842
0002c0 7a 14 1a be b4 eb af 3c 61 2c 08 be 94 cd 3a bd
       -0.15046874 0.021474697 -0.13298179 -0.04560621
0002d0 46 63 b8 3c 89 10 b7 bd 60 ce b5 bd c1 e7 61 bd
       0.022508275 -0.08938701 -0.088772535 -0.05515266
0002e0 f7 95 0a bd 75 ec b1 bd 62 7c 16 be 90 2d 59 bd
       -0.033834424 -0.08687679 -0.14695886 -0.053021967
0002f0 24 75 94 bd af 20 fa bc 5d 5e 78 bb 04 c0 66 3c
       -0.07248905 -0.030533163 -0.0037898042 0.014083866
000300 4d 53 37 bd 1a c9 a0 bd f7 85 f5 bd fd 98 80 bc
       -0.044757176 -0.07850857 -0.119884424 -0.01569795
000310 61 59 0a bd 2a 12 d5 bc 54 f0 84 bd 64 0b cd bb
       -0.033776645 -0.026009638 -0.064911515 -0.0062574614
000320 9e 8b 04 be 91 7f 8b bd 98 69 ea bd 8e e4 c7 3d
       -0.12943885 -0.06811441 -0.11445922 0.0976039
000330 8c 18 c6 bd 88 12 bb bc 61 25 45 bd f6 3b 77 bd
       -0.09672651 -0.022835985 -0.04813135 -0.060359918
000340 a8 4e e0 bd 3f 08 cf bc f8 d4 10 be c8 97 ed bd
       -0.109525025 -0.025272487 -0.14143741 -0.116012156
000350 20 ac 5d 3c 72 2e 2c bc 8c 9d ae bc e0 2d 03 be
       0.013529807 -0.01050912 -0.021315359 -0.12810469
000360 2e d8 85 3a d0 08 96 b7 66 69 b4 bd 00 3a 13 be
       0.0010211521 -1.7885497e-05 -0.08809166 -0.14377594
000370 7e b0 a0 bd b4 2a e8 3d ea cb 12 bd 8d 35 e0 bd
       -0.07846163 0.1133627 -0.035839 -0.10947714
000380 7f d1 a2 bd c9 b1 55 bd b7 7a 8d bd 03 3d bb bd
       -0.079501145 -0.052171502 -0.069081716 -0.091424964
000390 6e 1a c8 bd a1 45 ab bc 2b 1d 7c bd 2b a9 9c bd
       -0.09770666 -0.020907225 -0.061551254 -0.07649454
0003a0 7a d0 1f 3b 45 54 09 3d 76 3d 26 bd f1 83 f7 bd
       0.0024385736 0.03352763 -0.040585957 -0.12085713
0003b0 e6 5a a0 bc 9e c8 a7 bc d7 30 62 bd 33 83 26 bd
       -0.019574594 -0.020481404 -0.05522236 -0.040652465
0003c0 bc b7 a5 3d 9a ca ff bd 83 2b d7 bd ef 54 89 bd
       0.08091685 -0.12489815 -0.10506346 -0.06705653
0003d0 af d9 e4 3c a3 e8 a1 bd 7d d8 92 bd 5a 65 71 bd
       0.02793583 -0.079057 -0.07170198 -0.058934547
0003e0 e8 92 85 bd 3c 3b 3e bd e0 2a de 3b ce c9 13 3c
       -0.06522161 -0.04644321 0.0067800134 0.009020282
0003f0 0b 8d 8f bc 3c c1 18 bd f3 b3 38 bd 16 1c a1 bd
       -0.01752331 -0.037293658 -0.045093488 -0.07866685

weight f4 [128, 256]
000000 bb bc ba be 9c d5 10 be 27 02 08 be 46 52 a6 bd
       -0.36472115 -0.14143986 -0.13282071 -0.08121161
000010 ae 16 96 be dc 12 25 bc 45 56 33 be 0d 1e 2e be
       -0.29314178 -0.010075297 -0.17513378 -0.17003651
000020 08 fc 07 be f9 f7 82 3d 11 2c 06 be b9 7f 39 3b
       -0.13279736 0.06394953 -0.13102747 0.0028304888
000030 34 67 71 bd a8 55 d0 bd 7e 3e 72 bd ab 84 bd 3c
       -0.058936313 -0.10172588 -0.05914163 0.02313455
000040 10 3f 5c 3c a1 4b 28 3d 7b 4f a7 be 1a 08 71 be
       0.01344277 0.04108775 -0.32677826 -0.23538247
000050 36 b1 31 be 6a dd ba bd d1 c8 92 3d 28 32 ad bb
       -0.17352757 -0.09124263 0.07167209 -0.00528552
000060 fb 1b ec be 27 59 92 be 09 c8 f4 bb c9 e4 81 be
       -0.46115097 -0.28583643 -0.007470135 -0.25369862
000070 99 d6 af 3d b3 ca 54 be c2 20 29 be fc f7 32 be
       0.08585853 -0.20780449 -0.16516402 -0.17477411
000080 3a 54 99 3d 70 5a 46 bb 39 78 4f bd 8e 64 d2 bd
       0.07486768 -0.0030266307 -0.050651763 -0.102730855
000090 f7 0b a2 be 1d aa 99 be fd 1b 03 3e 21 9d a1 3d
       -0.31649753 -0.300126 0.12803645 0.07891298
0000a0 81 e8 bc be 9a d8 97 3e 4b 46 55 be 80 c8 f7 bd
       -0.36896136 0.2965744 -0.20827596 -0.12098789
0000b0 c9 d7 d2 bd 17 ae ca 3a 36 c8 1f 3d 4e 30 b1 3e
       -0.10295064 0.001546326 0.039009295 0.34607166
0000c0 1c cf 15 bd 3d 09 6d be d5 62 26 3d 48 da 8f be
       -0.036574468 -0.23148055 0.040621597 -0.28096223
0000d0 f2 50 4e be 6f 5a a5 be 4e c2 84 be c3 ab eb bd
       -0.20148066 -0.32295558 -0.25929493 -0.1150737
0000e0 16 eb 6a be cf 50 0c 3d 7c 7f 89 3d f8 d7 57 3d
       -0.2294124 0.034256753 0.06713769 0.0526962
0000f0 10 77 ac 3b 9e ca 6e 3d ff e6 22 be c3 77 b4 3d
       0.005263217 0.0582987 -0.1590843 0.08811905
000100 6d 20 2a 3d 33 27 1d 3c 09 26 0d bd a8 4e 13 bd
       0.04153483 0.009591865 -0.0344601 -0.035963684
000110 93 24 56 3d 38 2c 94 bd 05 16 27 3e a4 1f c1 3d
       0.052280974 -0.072349966 0.16316994 0.09429863
000120 e7 1d e9 bc ed 45 43 be bc ad 7f bd fb 8a 85 be
       -0.028456641 -0.19069643 -0.062421545 -0.26082596
000130 85 72 10 be 32 c2 11 be 7f 40 3d bd 16 69 c7 bd
       -0.14106186 -0.14234236 -0.046204086 -0.097368404
000140 9c 1c aa be 37 7a e0 bc f4 78 31 be 52 5d 2c 3c
       -0.33224952 -0.027402027 -0.17331296 0.010520296
000150 5c 0f be bd 97 62 0e 3c 0d b3 b3 3d e4 fe 02 bf
       -0.09280273 0.008690498 0.087743856 -0.5117018
000160 a2 5c 32 3e c3 88 8f 3d 53 9c 23 be 11 a8 29 3d
       0.17418149 0.07008507 -0.15977602 0.041420046
000170 49 ac 13 bc 93 1d 82 bd 12 53 c6 3c 39 fd a4 3e
       -0.009013244 -0.06353297 0.024209533 0.32224444
000180 ef ba 04 3e af 21 1e 3b 3f 07 c9 3c b6 fc 09 3e
       0.12961935 0.0024128964 0.024539588 0.13475308
000190 bf cc 14 be 62 40 40 3e d7 84 a5 be 43 79 b6 bd
       -0.1453123 0.1877456 -0.3232791 -0.089098476
0001a0 43 dc 30 3d 78 33 d3 3c 16 aa 93 3d b4 79 80 bc
       0.043178808 0.025781378 0.07210176 -0.015683033
0001b0 5b a0 f6 3c 60 04 f9 bb 75 3f e6 3d 41 64 05 3b
       0.03010576 -0.0075993985 0.11242572 0.0020353945
0001c0 89 15 b8 3c 07 fb f3 be ed 9c 40 be 6f 94 5e 3d
       0.022471206 -0.47652456 -0.18809862 0.054340776
0001d0 66 0c 83 bd 7d d8 d6 bc d0 74 1b 3c a4 9c a3 3d
       -0.06398849 -0.026226277 0.0094882995 0.07988861
0001e0 62 3d 95 3d 50 20 38 be 67 ca 94 bd 02 79 68 bc
       0.072870985 -0.17981076 -0.07265168 -0.014189007
0001f0 b3 79 84 3c d5 e2 a6 3d f0 5f ac be 75 9b 3c be
       0.016171312 0.081487335 -0.33666945 -0.18418677
000200 d0 e8 88 be 16 99 02 3e 57 e4 2e be 93 b9 83 3e
       -0.26740122 0.1275371 -0.17079292 0.2572752
000210 6a d4 ee 3c 88 52 5a be 10 00 39 3d ac 90 cd bd
       0.029154021 -0.21320546 0.045166075 -0.100373596
000220 9b 7b f9 3d 27 fd 6f 3c 89 cc 2c 3b 64 13 28 3e
       0.12181779 0.014647759 0.002636703 0.16413647
000230 a5 d8 e2 bc 2e f3 fa bc 7a d7 b0 bd f3 4f f0 3b
       -0.027691195 -0.030633535 -0.08634849 0.0073337494
000240 e6 ea 5d be 3f 6f b6 bd eb 5c 25 3d 62 be be 3d
       -0.21671638 -0.08907937 0.040371817 0.093136564
000250 cd 3f 45 3e 2e 16 69 be d6 af 5e 3d 25 ba 82 bb
       0.1926262 -0.22762367 0.05436691 -0.0039894753
000260 0e 8f 2d 3d 8a 28 c9 bd da b0 13 3d 82 53 aa 3c
       0.042372756 -0.09822185 0.03605733 0.020791773
000270 b2 ef de bc 59 da 1e 3e b8 d5 ae 3d da a1 f5 bc
       -0.027213905 0.1551298 0.08536857 -0.029984403
000280 32 c8 85 be 9c 9a 39 3e 8f fa 82 bd 46 16 d7 3d
       -0.261293 0.18125385 -0.063954465 0.10502295
000290 40 73 53 bd 08 50 37 bd ab c1 71 be 53 70 cf 3d
       -0.051623583 -0.044754058 -0.23609035 0.10128846
0002a0 11 0f 15 be 33 47 aa 3d 5e 2b e6 bd 97 fd eb bc
       -0.14556529 0.083143614 -0.112387404 -0.028807444
0002b0 df 5d 5c 3d 41 31 71 3d 11 1c ab 3b 79 74 dc 3d
       0.05380046 0.058884863 0.0052218516 0.10764403
0002c0 54 a3 45 be c5 0c c1 3c c6 d5 5f bd 26 fd e6 bc
       -0.19300586 0.02356566 -0.05464723 -0.028196882
0002d0 2b 2c 93 bd 86 d2 11 bd 66 04 17 bd e1 19 75 bc
       -0.07186159 -0.03560116 -0.03686943 -0.014959783
0002e0 17 d9 5a be 4d 06 66 3d 87 cc d2 3d b2 2e 10 be
       -0.21371876 0.056158353 0.10292917 -0.14080313
0002f0 87 9b ea 3d 3b 3d 30 3e c0 e9 d3 3d 8b 97 20 3e
       0.11455446 0.17210858 0.10347319 0.15682809
000300 c1 0b 17 be 1a c5 fe bd b1 f3 14 be c0 ba 0d 3e
       -0.14750578 -0.12439938 -0.14546086 0.1384077
000310 ff e7 fa bd ed c7 49 3e 6f a9 43 be 36 12 81 bc
       -0.12251281 0.19705172 -0.19107603 -0.015755754
000320 d6 79 dc 3d 70 46 3a bb 0c d6 16 bd 7d bd 21 3c
       0.10765426 -0.0028423332 -0.036825225 0.009871838
000330 e1 2e c4 bd 22 a2 20 3d df 65 58 be 97 2e 10 3e
       -0.09579254 0.039217122 -0.2113261 0.14080273
000340 19 2f 88 bd 6c cf fd bd 54 f5 ba 3d 74 59 84 3d
       -0.06649608 -0.12393078 0.09128824 0.06462374
000350 f1 d2 08 3e 21 e5 55 3e 5c 28 c8 bd 63 2c 38 3e
       0.13361718 0.20888187 -0.09773323 0.17985682
000360 40 4c e3 3d 65 5f 2d be 71 3d bb 3d 62 55 aa 3d
       0.11098528 -0.16930921 0.091425784 0.08317067
000370 d5 ff 1a be 1a ca 02 3e 44 d9 ae 3c b9 ae 11 bd
       -0.15136655 0.12772408 0.021343835 -0.03556702
000380 0b 7f 6f bc 32 1b c9 be 53 33 27 3e 57 2c 9a be
       -0.014617692 -0.3927856 0.16328172 -0.30111954
000390 46 16 64 be d0 aa 2d bd 08 f3 ce bd b9 4e fb bc
       -0.22274122 -0.042399228 -0.10104948 -0.030677186
0003a0 d1 79 bc 3c f1 1d 21 be 68 12 44 3c 6a 45 85 bd
       0.023007305 -0.15734078 0.011967279 -0.0650738
0003b0 bf 65 89 bd 53 df 6d 3c 3a 83 77 be 65 64 8d 3d
       -0.0670886 0.014518577 -0.24171153 0.06903914
0003c0 94 76 77 3e de c0 8f bd e2 67 37 be 7b 40 1a bd
       0.24166328 -0.07019208 -0.17910722 -0.03765915
0003d0 12 3d 85 3c f0 d5 eb 3d 74 40 ff 3d a7 78 91 bc
       0.016264472 0.11515415 0.12463465 -0.017757727
0003e0 78 4f 99 be d6 27 a8 bc 70 16 06 3e e6 f0 7a 3c
       -0.29943442 -0.020526808 0.13094497 0.015316224
0003f0 4c 18 81 bc 3d 64 1c 3d 49 59 ec bd 3a 83 24 be
       -0.015758656 0.038181532 -0.11540467 -0.16065684

bias f4 [128]
000000 77 a8 f0 3e 34 90 aa 3e e6 d0 78 be b3 0d 13 bd
       0.47003528 0.33313143 -0.24298438 -0.035901736
000010 9e 4d 3d bd 02 eb ab bd 3f a8 0d 3d bd 99 52 3e
       -0.0462166 -0.083944336 0.03458428 0.20566459
000020 94 23 b4 3e 72 fc 9c 3c 61 5d 8b 3e f5 e8 9c 3e
       0.35183394 0.019163344 0.2721968 0.30646482
000030 27 f6 e0 3e 61 32 91 3e 7e eb 25 3b 1d bb 93 3e
       0.439378 0.2835875 0.0025317366 0.28853694
000040 51 74 ec bd bf 57 c7 bd de ff 33 3d 59 5f ce be
       -0.11545623 -0.09733533 0.043945186 -0.4030712
000050 14 0a 11 3f 84 16 54 be 74 01 ed bd 21 58 c4 bd
       0.56656003 -0.20711714 -0.11572543 -0.09587122
000060 db d2 fb 3e 0a 39 e8 3d ff 20 b5 3d ea 93 14 3d
       0.49184307 0.11339004 0.08844184 0.036273874
000070 95 66 92 3e 8b e2 33 3e 37 00 eb 3d 13 86 12 3f
       0.2859389 0.17566888 0.1147465 0.5723583
000080 ef 21 f7 bd c9 84 0b 3f 61 52 8b 3e b3 00 32 be
       -0.12067019 0.5449949 0.27211288 -0.17383079
000090 8e d1 c7 3c 24 bc 70 be 35 b5 23 be 09 3e ad 3e
       0.024391916 -0.2350927 -0.15987094 0.33836392
0000a0 a5 8f 6d 3e c1 0c c8 3d e4 de a8 3d 5b 44 9d bc
       0.23199327 0.097680576 0.08245638 -0.019197633
0000b0 5c b5 a7 be 50 9b e7 3e d3 15 08 3f 8d ab 70 3e
       -0.32755554 0.45235682 0.531583 0.23502941
0000c0 cb ee be 3e f0 a4 2d 3e 29 4f 15 3e 8f fb c5 3e
       0.3729156 0.1695745 0.14580978 0.38668486
0000d0 d3 17 6a 3e 16 c2 57 be ba 94 ef 3d 58 fd 86 3e
       0.2286065 -0.21070132 0.11698289 0.2636516
0000e0 62 a2 f9 3e 9d f6 8b bc 41 14 d9 3d 3f e8 b8 3e
       0.487567 -0.017085368 0.10599566 0.3611469
0000f0 0f 63 c6 3e 5c f7 69 3e 6e fe 3d 3d 1e c7 ca 3e
       0.3874745 0.22848266 0.04638522 0.3960504
000100 06 10 29 be 07 4a 1d 3e ef 21 cd 3e 92 73 11 3e
       -0.16510019 0.1536027 0.40064952 0.14204243
000110 da 9e 21 3f 89 d6 74 3d 20 6a 37 bd 2a d1 07 bc
       0.63133013 0.05977491 -0.044778943 -0.008289615
000120 94 ca 97 3e 5a 00 84 3e ec 87 38 3e ce 24 30 3e
       0.29646742 0.25781518 0.180206 0.1720154
000130 c7 4d ec 3d 21 8c fa bd fe b6 47 3e 1d 47 75 3d
       0.11538272 -0.12233759 0.195034 0.059882272
000140 01 cb ea 3d ac ea 29 3e 09 f8 c6 bd cf 7a c5 3e
       0.11464501 0.16593426 -0.09715278 0.38570258
000150 8e f1 f9 3e 17 e0 c1 be 86 e9 86 3e e8 71 70 3e
       0.48817104 -0.3786628 0.2635004 0.23480952
000160 ee 34 45 3e 3d 05 32 bd 65 3e 58 3e 3d 40 59 3e
       0.19258472 -0.043462027 0.21117552 0.21215911
000170 19 4e 61 3e 02 db cd 3e c3 f4 a4 be e2 8a 8f 3e
       0.22002448 0.40206152 -0.32217988 0.28035647
000180 98 b7 44 be f8 d9 4d be c9 9b 08 3e 0b dc 21 3d
       -0.1921066 -0.2010268 0.13340677 0.03951649
000190 62 05 10 3e f0 93 c4 bd 55 db 77 bc 11 ad 18 3e
       0.14064553 -0.09598529 -0.015127976 0.1490977
0001a0 a6 ab 0a be 4f ce 8c 3e 6d e4 af bd 43 b7 01 3f
       -0.13542041 0.2750115 -0.08588491 0.5067026
0001b0 61 49 3a 3e de 5a 81 3d 70 0f 4d 3e e3 5d 96 be
       0.18192054 0.0631616 0.2002542 -0.29368505
0001c0 4b 61 98 3d 74 64 fb 3e 8d 3f 40 be a4 6d cf be
       0.07440432 0.49100077 -0.18774243 -0.40513337
0001d0 1c cc 09 3e cf 55 0e 3f 0f 73 82 3e d0 d0 50 3e
       0.13456768 0.55599684 0.25478408 0.20392156
0001e0 ee bf e1 3c 63 d9 bf 3e 85 30 75 3e 52 ef 9a be
       0.02755734 0.3747054 0.2394429 -0.30260712
0001f0 4f 6e 79 3e e0 37 1f 3e ec cd a9 3e c6 19 30 3e
       0.24358486 0.15548658 0.33164918 0.17197332

weight f4 [64, 128]
000000 32 fc 15 be a3 03 0b 3d bf 26 83 bd 01 ab 2c bc
       -0.14646986 0.033939015 -0.064038746 -0.010538817
000010 cc 7b 27 bd 79 8f 19 3e 18 d4 53 bc 65 56 0c 3d
       -0.040889546 0.14996137 -0.012928985 0.03426208
000020 3a c0 aa bd 26 6d 19 be b9 36 d9 bb aa e9 1e be
       -0.083374456 -0.14983043 -0.006628838 -0.15518823
000030 3b f7 c3 be 1e 5d 14 3c f7 19 40 bc d6 5c 87 3c
       -0.3827456 0.009055404 -0.0117249405 0.01652376
000040 9f 2b dd 3d a7 31 34 be c7 8d 03 3e 2c 66 a6 3b
       0.10799336 -0.17597066 0.12847053 0.005078098
000050 03 68 22 be 00 d2 d0 bd 59 88 0e 3e e2 40 88 3d
       -0.1585999 -0.10196304 0.139192 0.066530004
000060 e0 2d 87 3d 74 5c aa 3d 6f db a8 3d 26 20 14 3d
       0.06600547 0.08318415 0.08244979 0.03616347
000070 0d 0f a7 bd 19 f6 70 3d 83 d2 06 be f1 19 bb be
       -0.081571676 0.058828447 -0.13166241 -0.3654323
000080 1f e0 f7 3c 12 c8 b6 bc fa 87 81 be 5b ab 23 3d
       0.030258236 -0.022312198 -0.25299054 0.03995834
000090 9b c3 25 3c d0 58 80 bc 8a 0a 56 3e c4 a4 1f 3d
       0.010117437 -0.01566735 0.20902458 0.038975492
0000a0 5f ca ab bd 1d f9 df 3d ec b6 6e 3e c8 15 73 bd
       -0.083882086 0.109361865 0.23311967 -0.059346944
0000b0 51 c5 cb 3e 5a ac 58 be eb fc bd be 5f 63 88 3d
       0.39798978 -0.21159497 -0.37107024 0.066595785
0000c0 01 76 aa bd 0d 3e ce bd 2a 67 de 3c 2c 7f 9c be
       -0.08323289 -0.10070429 0.027148802 -0.30565774
0000d0 ac cb eb bc c8 d8 6a 3d 94 70 3b be 3b cb 03 3d
       -0.028783642 0.057335645 -0.18304664 0.032176238
0000e0 3e 18 46 3d 5f 0b 6d 3e 52 64 ec 3c 8c bf f3 bd
       0.048362963 0.23148869 0.02885643 -0.11901769
0000f0 83 45 b0 be 4c 30 93 3d fa fc 66 be e4 43 a7 bc
       -0.34428033 0.07186946 -0.2255744 -0.020418115
000100 c3 20 7f 3e 63 07 10 3d bd e1 ff 3d fd da e0 bd
       0.24914841 0.035163295 0.12494228 -0.10979269
000110 77 fc d5 bc d2 59 fd 3c 26 9b 0f be 46 1d 71 3c
       -0.026121361 0.030926619 -0.14024028 0.014716452
000120 17 29 81 3e fc d2 8b be 47 4e 44 3d e5 1e 15 bd
       0.25226662 -0.27309406 0.047926214 -0.036406416
000130 ac 60 aa be 71 4b 51 3e 44 bd 43 3e 22 8a c6 bd
       -0.3327688 0.20438935 0.19115168 -0.096943155
000140 6a 5b d9 bd b1 93 e2 3c ff 25 a2 bd d9 5b 98 be
       -0.10613139 0.027658315 -0.079174034 -0.29757574
000150 48 b9 41 bd 7e 7c b4 3d 73 4f 50 3d d3 c4 a7 3d
       -0.04729584 0.088128075 0.05085702 0.08191838
000160 3a 31 ff 3c 94 95 a9 3d 50 b3 7d be f0 ab bc bd
       0.031151403 0.08280483 -0.24775434 -0.09212482
000170 2f 26 71 be 9e 12 1c 3e d9 7e 46 bd c4 9a 9c be
       -0.23549722 0.15241477 -0.048460815 -0.30586827
000180 a2 24 41 be 80 1b 00 be ea 84 a5 be c7 d8 2b 3d
       -0.1886163 -0.1251049 -0.32327968 0.04195478
000190 8b 8b 83 3e 36 3c bb 3c 33 32 83 bd 2b f6 f1 3c
       0.256924 0.02285586 -0.06406059 0.029536327
0001a0 7f c8 83 bb 6f 67 b0 38 f9 7d 23 bb 56 ac 4a 3d
       -0.0040217037 8.4116e-05 -0.0024946912 0.04948076
0001b0 2f f4 2b 3d eb 61 27 be 74 51 cf bd 6f cb b3 3d
       0.04198092 -0.16345946 -0.10122958 0.08779036
0001c0 82 a1 e9 3d c9 da 86 be 93 7c d1 3d 2c 6d 90 3d
       0.11407758 -0.26338795 0.10228839 0.07052073
0001d0 f6 3c e6 3d 28 ea 14 bd 97 6d 81 be 13 27 4f 3e
       0.11242096 -0.03635612 -0.25278923 0.2022975
0001e0 f2 ec d4 bd b3 97 8d 3d 52 c8 ed bc fe 5f 91 bd
       -0.10396756 0.069137 -0.029026184 -0.07098387
0001f0 e2 3c 43 be 40 ef bc 3d f9 01 5c 3e b6 27 87 3b
       -0.19066194 0.09225321 0.21485128 0.004124607
000200 ce 85 20 3e bf 35 cb bd 5d 16 23 bc 29 1f 1f be
       0.15676042 -0.09922361 -0.009954062 -0.1553923
000210 0d be 10 3e ce 12 c9 3b 91 d6 20 3c 97 bf 6e bd
       0.14134999 0.006136275 0.009816782 -0.058288183
000220 7c 0a 92 3d 39 80 42 3e a1 d7 3a bc b5 8f e9 3d
       0.07130906 0.18994226 -0.011403949 0.11404363
000230 53 78 97 bc 9e 1a ac 3d 94 ae 00 3e a8 cc cf bd
       -0.018489992 0.08403514 0.12566596 -0.10146457
000240 c6 22 44 be 1a 3e ec bd 92 6a bb ba dc c7 16 3e
       -0.1915389 -0.115352824 -0.0014298728 0.14724678
000250 bc 4d 88 3d 1c b5 b2 3d d9 86 08 3d 2c 0e 11 3e
       0.06655452 0.0872595 0.033331726 0.14165562
000260 6f 46 19 3d da f5 ed bd 23 77 48 be 77 1a a1 be
       0.037420686 -0.11619158 -0.19576697 -0.31465504
000270 6b 82 18 bd 23 30 c2 3c 18 83 24 be eb c4 a9 bc
       -0.03723375 0.023704594 -0.16065633 -0.02072378
000280 1d e4 61 3d 7c aa 05 3e c4 6d 97 3c 88 20 a8 be
       0.055149186 0.13053316 0.018484958 -0.3283732
000290 bf c2 9c bd c7 5c 14 3c 47 e1 5c 3d df 63 0b 3e
       -0.07654332 0.009055323 0.05392578 0.13612317
0002a0 91 ff fc be 3d 76 c8 bd 03 fb 32 3d 52 37 61 be
       -0.49413732 -0.09788177 0.043696415 -0.2199376
0002b0 17 73 10 3e de d8 ef 3c b4 97 c6 bd 14 a1 a7 bc
       0.14106403 0.029278215 -0.09696904 -0.02046255
0002c0 c2 49 04 3d 92 ea d3 3d c1 7c b0 3d 21 5e 09 bb
       0.032296903 0.10347475 0.08617545 -0.0020960646
0002d0 f3 4d c2 bc 2a ed f2 be 38 10 8f 3d 2b 32 a5 bd
       -0.02371881 -0.47446567 0.06985515 -0.080662094
0002e0 b4 7f 9b bd 99 2e a0 3d 6f 42 b5 3d ad d3 bb ba
       -0.07592717 0.07821388 0.08850562 -0.0014330052
0002f0 d1 e2 07 3e 21 43 11 bd 6c f4 03 3e 4e 27 45 3c
       0.13270117 -0.03546441 0.12886208 0.012033297
000300 73 db b5 bc 8c d2 ed 3d e3 59 9d 3d 44 5e bd 3d
       -0.022199368 0.11612424 0.0768316 0.09246495
000310 49 f9 3c 3e d1 d1 d3 bd cc 3e 85 bc 7d 69 26 bd
       0.1845447 -0.10342754 -0.016265295 -0.040627945
000320 8d 33 93 3d 97 55 ea 3c 7c e8 70 be e4 46 c0 3d
       0.07187567 0.028605266 -0.23526186 0.09388521
000330 8e 8f d3 bc a8 d8 bb 3c 6f 07 41 bd 70 74 8c be
       -0.025825288 0.022930458 -0.04712623 -0.27432585
000340 c0 66 c1 3d 14 81 91 3d f2 5e 16 bd e5 14 1a 3e
       0.09443426 0.07104698 -0.03671164 0.15047033
000350 96 fe 1a bd 8d a7 07 be 46 c2 eb 3d 5e 4e 3b bd
       -0.03784045 -0.1324751 0.11511664 -0.045729034
000360 52 e8 e6 bd 39 18 0d bc 9d 24 77 3d ff 55 d3 bd
       -0.1127478 -0.008611732 0.06033765 -0.10319137
000370 c3 02 37 3e 52 70 b2 be 6b 42 30 3c fd a8 e1 3d
       0.17872147 -0.3485132 0.010758023 0.1101856
000380 38 f0 e3 3d f1 4e 59 3c 1a 32 ee bd 44 9a 1d 3c
       0.111298025 0.01326345 -0.1163065 0.009619299
000390 db 35 e4 bd 0c 0a fd bc 9e f9 d0 be 85 62 75 bd
       -0.111430846 -0.03088858 -0.40815443 -0.05990841
0003a0 2d 1f 58 bd ac 39 71 be 39 c7 4c be 50 c4 99 3d
       -0.052764107 -0.23557156 -0.19997872 0.07508147
0003b0 70 f6 27 3e f0 a1 06 3e 81 52 fe bd 50 9b 15 be
       0.16402602 0.13147712 -0.1241808 -0.14610028
0003c0 d1 22 ae bd 82 e6 81 be ea d2 14 be f5 f2 bc be
       -0.085027345 -0.25371176 -0.14533582 -0.36904112
0003d0 bc a8 a4 bc ce 38 80 bc e7 48 23 bd 87 f1 10 3e
       -0.02009999 -0.015652087 -0.039864447 0.14154635
0003e0 5d 61 fe 3c 11 19 20 bd f9 5b 2f be b4 38 14 3e
       0.031052286 -0.039086405 -0.17124929 0.14474756
0003f0 fe af e9 3d fd 93 2d be 70 d3 4d be 67 9e 48 be
       0.11410521 -0.16950984 -0.20100188 -0.19591676

bias f4 [64]
000000 d8 a6 74 3e fb 90 31 3f 10 66 86 be 73 d6 7f 3e
       0.23891771 0.6936185 -0.26249743 0.2498415
000010 a1 48 1b 3f 7d 91 fa 3e 14 39 82 3d cb 51 f3 3e
       0.606577 0.48939124 0.06358543 0.4752334
000020 f9 72 0f 3f 15 77 2c 3f a2 b2 f9 3e 17 92 e7 3e
       0.5603481 0.67369205 0.487691 0.45228645
000030 18 62 d3 3e 73 47 15 3f 66 7b f3 3e 91 35 b5 3e
       0.41285777 0.5831215 0.47555083 0.3539243
000040 57 c8 0e 3f 21 3b d8 3e c0 08 e7 3e f3 84 c5 3e
       0.55774444 0.42232612 0.45123863 0.38577995
000050 54 91 63 3f 66 2e 04 3f 77 70 1b 3f 7e 22 06 3f
       0.8889363 0.516333 0.6071848 0.5239638
000060 a8 46 c7 3e 03 8a c7 3e a8 d7 02 3f ac bf 53 3e
       0.38921094 0.38972482 0.51110315 0.20678586
000070 56 14 3f 3f 33 09 e3 3e 84 ac c0 3e 3d 9c 6a 3e
       0.74640405 0.44342956 0.3763162 0.22911163
000080 f3 9d 21 3e 9b 96 11 3f 4f a1 03 3f 21 9f 10 3f
       0.15782909 0.5687043 0.5141801 0.5649281
000090 40 99 eb 3e 2f dd 04 3f f4 cf d5 3e fa b2 20 3f
       0.46015358 0.519 0.41760218 0.62773097
0000a0 41 63 11 3f 23 03 7b 3e d1 f9 00 3e 03 3f 27 3e
       0.56792074 0.24512915 0.12595297 0.16332631
0000b0 22 50 e5 3e d7 64 0c 3f fe e2 2f 3e 85 ac ff 3e
       0.447877 0.5484137 0.17176434 0.4993631
0000c0 f7 49 42 3e 6c ee be 3e b9 19 99 3d 8d 2c 04 3f
       0.18973528 0.37291276 0.07475609 0.5163048
0000d0 be ad 50 3f 30 62 06 3f 98 07 33 3f bc c7 0e 3f
       0.8151511 0.5249357 0.6993346 0.5577352
0000e0 ef 50 13 3f 4d 92 f7 3e 9a ad 3f bc 44 67 e1 3e
       0.5754537 0.48353806 -0.011699105 0.44024098
0000f0 3c 03 0c 3f e8 4c f0 3e 21 8f 25 3f 79 31 05 3f
       0.54692435 0.46933675 0.6467152 0.52028614

weight f4 [10, 64]
000000 cd d9 66 be a0 4b bd bd 4b c5 e7 bd 97 48 f9 be
       -0.22544022 -0.0924294 -0.113169275 -0.48688194
000010 91 09 b1 3d 60 4c 84 bd a1 02 3e 3d 3e fb 21 be
       0.08644403 -0.0645988 0.046389226 -0.15818498
000020 8f c9 ac bd 09 9a 5d 3d 56 f3 4e 3d c8 0a 7e 3c
       -0.08436882 0.054101977 0.050525032 0.0155055
000030 5b f8 b8 3d cc d5 0a 3d d6 99 c9 3d d4 d1 a1 3c
       0.09031745 0.0338953 0.09843795 0.019753374
000040 47 ec f8 bc 00 4a 86 3b 23 31 36 bd d9 f4 99 3d
       -0.030386103 0.004098177 -0.044480454 0.07517404
000050 c0 d3 03 3e 2f 15 91 be bf dd fe bd a9 dd 2d be
       0.12873745 -0.28336474 -0.124446385 -0.16979088
000060 4b 7e 8d 3d 66 c1 fd bc af ce 66 bc 76 94 cd bd
       0.06908854 -0.030976009 -0.014087363 -0.10038082
000070 ee 3c 87 bd fc 87 5a be 6e 79 b8 be 29 8c b0 bd
       -0.06603418 -0.21340936 -0.36030143 -0.086204834
000080 fe e6 d4 3c 29 3a 20 be 08 4e a3 be 63 93 37 3c
       0.025989052 -0.15647186 -0.3189547 0.011204573
000090 70 ae 42 be dd 09 07 be b8 16 e2 3c d4 bc 15 3d
       -0.19011855 -0.13187356 0.027598724 0.036557034
0000a0 44 35 96 3d 30 78 01 3d 78 ef 99 be 39 3c f5 bd
       0.07334378 0.03160876 -0.30065513 -0.11974377
0000b0 46 3d d2 bd 0b 0c 89 be 9e f9 7d 3c 0f a6 89 be
       -0.10265593 -0.26767 0.015501408 -0.26884505
0000c0 e8 1f 63 be 4e 0e 18 3d 88 ad 85 3c ba 24 8f 3c
       -0.2218014 0.037123017 0.016318098 0.017473567
0000d0 1d a8 d7 bc f7 1a a5 3d 57 4b ed 3d bc 7d 68 3d
       -0.02632528 0.08061784 0.115866356 0.056760535
0000e0 9a 65 38 bd 76 cc ef 3d 36 c4 41 bd f5 ad 19 3d
       -0.04501877 0.1170892 -0.047306262 0.037519414
0000f0 ee 64 90 be 78 89 a0 3d 4a 91 f7 3d 63 73 16 3e
       -0.28202003 0.0783872 0.120882586 0.14692454
000100 e7 23 60 be 61 3a 04 3d 9e e5 5e 3d fe db 96 be
       -0.21888696 0.032282237 0.0544182 -0.29464716
000110 70 df 22 be 88 74 a7 be d9 7a 3d be d2 87 57 be
       -0.15905547 -0.32706094 -0.18503894 -0.21047905
000120 7b 72 8f be 2c 41 88 be d9 10 ee 3d 47 28 eb bc
       -0.2801703 -0.26612222 0.11624307 -0.02870573
000130 80 f9 7d bd 7f b0 15 be 87 19 cc 3d 24 03 f4 3d
       -0.06200552 -0.14618109 0.099658065 0.119146615
000140 d0 a3 0c be f3 fc 21 be cc f0 fb bc 33 e4 89 3d
       -0.13734365 -0.15819149 -0.03075447 0.06732979
000150 ba a8 2c be a6 e5 97 bd 48 e5 8a 3d cd 59 03 bf
       -0.16861239 -0.07416849 0.06782013 -0.513089
000160 81 53 9f 3d 51 10 cc 3d 22 34 b7 bd 3c fc c4 be
       0.07779599 0.099640496 -0.089454904 -0.3847369
000170 9c 3e 65 be bd 75 ec be ab 33 39 be 29 3c 07 be
       -0.22387165 -0.46183577 -0.18086116 -0.13206543
000180 de f6 91 bd 0e c3 ff 3d 12 5b b7 be 48 0e b8 be
       -0.07127164 0.124883756 -0.3581167 -0.35948396
000190 5b 3e a2 be 85 cf 6d be 8d f5 d8 bd 97 aa ba 3c
       -0.31688198 -0.23223694 -0.1059371 0.022786422
0001a0 c5 7b 91 be 52 0e 26 be b0 4d 9c bb ae 8a 8f bd
       -0.2841474 -0.162164 -0.0047700033 -0.07008873
0001b0 80 a1 b1 be ff 13 d3 bd f5 a1 a3 be 77 f6 01 3e
       -0.34693527 -0.10306548 -0.319595 0.12691675
0001c0 62 8e 13 bd b2 11 3b 3d a7 0b 8c 3d 68 2d 40 bd
       -0.03602446 0.045671172 0.0683816 -0.046918303
0001d0 d4 f9 9f bd a4 b6 cf be bd ca b0 3d 64 aa 7f bd
       -0.07811323 -0.4056903 0.08632419 -0.062418357
0001e0 ed 9b e2 3d 5d 9c ab be 3d cc 0c 3d 94 7e 48 be
       0.11064897 -0.33517733 0.034374464 -0.19579536
0001f0 8c 50 1f be 88 32 bc bd d5 31 9a be 15 f9 2f 3d
       -0.1555807 -0.091893256 -0.30116144 0.042962153
000200 37 5d 82 be 04 d2 2c bd 95 41 b0 be 38 83 f4 be
       -0.25461742 -0.042192474 -0.34425035 -0.47756362
000210 1b 41 15 be 30 c2 6f be ba c8 6b bd f8 e7 b5 3d
       -0.14575617 -0.2341392 -0.057564475 0.08882135
000220 c5 0f 80 3d 74 88 cb 3c 94 bf a6 3d 24 ee 98 be
       0.06253008 0.02484534 0.081420094 -0.29869187
000230 60 4a 08 be b2 ff c6 3c ff 7d 47 be 58 70 e9 bd
       -0.13309622 0.024291847 -0.19481657 -0.11398381
000240 01 f3 5c bd bc 32 04 3d be fb 18 3d 0a 5f cb bd
       -0.053942684 0.032274947 0.037349455 -0.09930237
000250 5e 8f c5 3d f9 b6 ce 3d d7 fc 6d 3d 9e b7 07 3d
       0.09646486 0.10093493 0.058102455 0.033134095
000260 e7 ce 7a bc 16 fa 63 bc ba 96 1c be c2 dc ca bd
       -0.015308118 -0.013914606 -0.15291873 -0.099053875
000270 ea 1f a3 3d 11 10 4a 3c 40 c3 6c be 01 0f b7 be
       0.079650715 0.012332932 -0.23121357 -0.35753635
000280 64 7f 8e 3d 3f 71 b0 3d fd a6 a5 be ec 75 07 3e
       0.069578916 0.0861535 -0.32353964 0.13228577
000290 4e 36 85 bd d4 c7 e1 bd 69 7d 3d bd 80 0b 4d 3d
       -0.065044984 -0.11024442 -0.04626218 0.050059795
0002a0 99 0c cd bc 69 84 ac bd dc 64 80 be e3 30 4a be
       -0.025030421 -0.08423693 -0.2507695 -0.19745211
0002b0 45 c9 68 be be ca b8 be 2d 23 15 be 27 a0 13 3d
       -0.22733028 -0.3609218 -0.145642 0.036041405
0002c0 7f c1 b9 be 0c ab 23 3b ce 9f 45 be bc ae 74 be
       -0.36280438 0.0024973778 -0.19299242 -0.23894781
0002d0 14 cd ec 3d 99 32 9b 3d 1b 00 cd 3d 5d 08 44 bd
       0.11562553 0.0757801 0.10009786 -0.04785954
0002e0 66 40 8e 3c 78 5d ba 3d 57 6c 3f be 0c 43 51 3d
       0.017364692 0.09099859 -0.18693672 0.05108933
0002f0 70 cd 25 3c 82 e4 4b be 7c 51 e0 3d 68 ee a7 bb
       0.010119781 -0.19911388 0.10953042 -0.005124856
000300 3c 56 b7 be 94 31 ba 3d 83 f1 b2 be ea 32 92 be
       -0.3580798 0.090914875 -0.34949884 -0.2855447
000310 6c 10 d6 3d 4f 7e f1 be b2 71 68 be b7 e3 04 3e
       0.10452351 -0.47166678 -0.22699621 0.12977491
000320 d3 97 d9 be d0 36 69 be b9 0a 8b be 0c e4 d5 bd
       -0.42498645 -0.22774816 -0.27156618 -0.10443887
000330 02 66 b4 3d d1 0e 8a be 2b 4e a9 3d ca 5f 75 be
       0.08808519 -0.2696443 0.082668625 -0.23962322
000340 00 2a a4 3c 0f 75 cd be 12 18 07 be a4 48 ce 3c
       0.020039558 -0.4012837 -0.13192776 0.025181122
000350 bd 7c 0a bc dc 01 b1 be 60 56 85 3d 0b 77 b5 be
       -0.0084525915 -0.3457173 0.06510615 -0.35442385
000360 dc 5a dc 3c 47 ab e5 3d 9d 1a 3d 3d eb d4 c0 be
       0.026898794 0.11214309 0.04616796 -0.37662444
000370 61 34 c0 3d cb 78 7e bd 1d 2b c1 bd 25 47 8c 3c
       0.093849905 -0.062126916 -0.09432051 0.017123768
000380 77 0c 9a 3d 1b 65 cc 3d a7 7d bb be 0e b5 ae be
       0.07521909 0.09980222 -0.36619303 -0.3412251
000390 47 f0 00 3d 82 93 3d 3c 34 d3 22 bd e4 2b 9f 3d
       0.031479146 0.011570813 -0.0397522 0.07772043
0003a0 c5 3e 32 be 02 ef 87 3d 64 42 b6 be f5 27 bb bd
       -0.17406757 0.06637384 -0.35597527 -0.091384806
0003b0 bc 31 fe be 3e ee c5 bc cf fe 62 be 7a ce 94 bd
       -0.4964732 -0.024161454 -0.22167514 -0.07265945
0003c0 d7 4f f6 bd 5f ff 57 3d 5b c8 44 3d 08 08 02 3c
       -0.12026947 0.052733775 0.048042636 0.007936485
0003d0 e4 7c cd 3d d4 a1 56 bd 66 c7 b7 3d 25 9a cd 3d
       0.100335866 -0.052400425 0.08973579 0.10039166
0003e0 9e 65 bb 3d 61 0b 8f 3d 8f b4 b3 bd 22 1f fc bd
       0.09150241 0.06984592 -0.08774673 -0.123106256
0003f0 df ee b4 be 0e 08 8c 3d 1c c4 d8 3d 03 02 79 bd
       -0.35338494 0.06837474 0.1058428 -0.060792934

bias f4 [10]
000000 0b 37 33 be b6 f0 ed be ef 50 21 3e 4e 92 7c 3e
       -0.17501466 -0.4647271 0.1575353 0.24665186
000010 cd 83 34 3e 99 dd af be f0 2b 8a bd 3c ba ac 3e
       0.17628403 -0.34348753 -0.06746662 0.33735836
000020 b7 b5 18 bd 82 64 d3 be
       -0.03728267 -0.4128762

fc1.weight f4 [256, 784]
000000 bb c4 10 3d 99 a5 98 3d ce 47 a4 3d df fe 84 3c
       0.035343867 0.0745346 0.08021508 0.016234813
000010 c3 85 92 3d 12 27 91 3d 74 21 89 3a 0e 0e 4c 3d
       0.07154419 0.0708753 0.001046224 0.04981809
000020 35 dc 0f 3e 23 cd 3c 3e f2 b5 ec 3e fd 95 11 3f
       0.14048846 0.18437628 0.46232563 0.5686949
000030 32 64 b2 3d 80 6a 23 be 45 7b a9 bd 4b 76 b5 3c
       0.08710517 -0.15958595 -0.08275465 0.022151133
000040 ba ff 09 3f 8c 12 cd 3e 93 48 55 3e 37 18 5d 3e
       0.5390583 0.40053213 0.20828466 0.21591268
000050 2e 29 29 3e a7 70 84 3d fe 65 97 3d e6 f9 c8 3c
       0.16519615 0.06466799 0.073925 0.024533223
000060 f4 be 89 3d 69 2d 2b 3d 4d 36 89 3d 32 8b f4 3c
       0.067258745 0.041791353 0.0669981 0.02985153
000070 48 c7 5e 3d 6e c1 8d 3d e8 0c 30 3d 0b a0 b9 bc
       0.05438927 0.069216594 0.04298106 -0.022659322
000080 91 45 8f bb 53 dc a1 bd 92 44 6f be 6e a6 75 be
       -0.0043723066 -0.07903352 -0.23366001 -0.23989269
000090 7d 8b 3e bd e0 4b cd 3d b5 74 22 be 51 88 1c 3e
       -0.046519745 0.10024238 -0.15864833 0.15286376
0000a0 54 df fc 3c 25 20 2b bd 28 28 a5 3d f9 e6 7c be
       0.03086821 -0.041778702 0.080643 -0.24697484
0000b0 b7 86 ae 3e a0 1b f2 3e 16 27 a8 3e 26 c9 c1 3d
       0.34087154 0.472867 0.3284232 0.09462194
0000c0 42 e9 89 bd ae 61 b5 bd b3 47 06 be a4 3d 20 bd
       -0.067339435 -0.088565215 -0.13113289 -0.039121285
0000d0 9a bf 73 bd 5d f1 45 3c b1 4f 83 3d ed e8 89 3d
       -0.059508897 0.012081471 0.06411684 0.0673388
0000e0 c3 37 62 3d 49 db 6f 3d 18 3f ea 3c eb 4e cd bc
       0.05522896 0.058558736 0.028594539 -0.025062045
0000f0 a0 85 86 3a db 21 cb bd f3 41 a9 bd c1 76 c5 3c
       0.0010263212 -0.09918567 -0.08264532 0.024104478
000100 1f 4a 08 be ee e8 b5 be e4 b1 0a bd c3 c5 8c 3e
       -0.13309525 -0.35529274 -0.033861056 0.2749463
000110 d6 4f 1b 3e 1f 44 69 bd 03 52 57 be 8a 8b d6 bd
       0.15167174 -0.05694973 -0.21027379 -0.10475834
000120 6f 28 e8 3c 7c cd 60 3d 7d 91 0d bd 50 9c ce bd
       0.028339593 0.054883465 -0.034562577 -0.10088408
000130 08 7d fc 3d 7f 97 88 3c 41 30 ff bd 24 8c 83 bc
       0.12328535 0.016673801 -0.124603756 -0.016058035
000140 ef 68 61 bd a4 73 73 bc 6e 15 97 3d fb 9f 64 3d
       -0.055031713 -0.014859114 0.07377134 0.05581663
000150 e6 8a 9c 3d 30 f5 0a 3d 2e 1c 88 b9 bf ee 11 3d
       0.0764368 0.033925235 -0.00025960937 0.035628077
000160 98 b0 b2 3c 4f eb 8f 3d c4 6b 3d 3d a0 52 b2 3d
       0.021812722 0.070273034 0.04624535 0.08707166
000170 a8 72 82 3c 9a e9 69 3e 11 88 4f 3e 97 96 38 bd
       0.015923813 0.22843018 0.20266749 -0.04506549
000180 91 f3 d8 3d 09 95 0c be 0a 8a 96 be 80 3e 0b be
       0.105933316 -0.13728727 -0.2940219 -0.1359806
000190 f8 25 82 bd 19 93 b5 3e 08 1a 96 3e 4b 80 e2 bd
       -0.06354898 0.3546379 0.29316735 -0.11059626
0001a0 28 5d 15 bd 52 db c3 3d c8 4c 07 3d 25 15 8b 3c
       -0.036465794 0.095633164 0.03303221 0.016977856
0001b0 c6 08 85 3c a7 29 a0 bc 64 b3 b3 3c 88 aa 99 3c
       0.016239535 -0.019551111 0.021936126 0.018758073
0001c0 45 dc 0d 3c 3c 06 9f 3d e4 2d 39 3d 28 7f 7c 3d
       0.008658473 0.07764861 0.04520978 0.061644703
0001d0 d5 e6 5d 3d 3f 61 28 bc d7 e6 4e 3e 59 9c 14 3e
       0.054175217 -0.0102770915 0.20205246 0.14512767
0001e0 a2 8d 6a be f6 a1 36 3d 5b ef f1 bd 21 2a a3 be
       -0.22905591 0.04458805 -0.118132316 -0.3186808
0001f0 bb 4f 8c be f8 07 b7 bd 4e bc c1 be d5 5d 6d bd
       -0.2740458 -0.08937067 -0.37838978 -0.057950813
000200 24 2f c4 be b7 93 89 3c a6 15 9d 3d 47 e1 4a be
       -0.38317215 0.016794069 0.07670145 -0.19812499
000210 61 97 2a ba 97 89 30 3e 08 6f 91 3d 6b 15 17 3d
       -0.00065075426 0.17239986 0.07101256 0.03688566
000220 4c 0b 01 3d 42 c3 53 3b 66 35 16 bd c4 2b ed 3c
       0.031504914 0.0032312428 -0.03667202 0.028951533
000230 d6 a2 1b bc 90 9b 95 3c 72 a5 91 3d 31 c0 9e 3a
       -0.009499272 0.018262655 0.07111634 0.0012111721
000240 da 24 cb 3d cf 78 87 3d b7 b8 89 3e 34 19 87 3d
       0.09919138 0.06614839 0.2689874 0.06596604
000250 5a e4 24 be 9c a7 bb bb 7a fb 7f be 36 b1 03 be
       -0.16102734 -0.0057267677 -0.24998274 -0.1286057
000260 3c b8 55 3e c4 49 aa 3d 59 05 3c be d2 95 ab 3b
       0.20871061 0.08314851 -0.18361415 0.005236366
000270 73 06 43 be c0 ad 65 bd 2e 3b 00 be 9c c8 01 3c
       -0.19045429 -0.056073904 -0.12522575 0.007921364
000280 98 20 b9 bc 6f 61 fe bb 23 bc b4 3d d3 71 b9 bc
       -0.02259855 -0.00776308 0.08824947 -0.022637283
000290 82 97 42 bd 87 bb ee bc 6b 6c c7 bc 5c e1 14 3d
       -0.04750777 -0.029142154 -0.02434369 0.036347732
0002a0 11 42 23 3d ae 3b 94 3d 6e 2e c0 3d dd 3c 9c 3c
       0.039857928 0.072379455 0.09383856 0.01907199
0002b0 4e c4 e2 3c 39 55 50 3e fc e7 13 3e 33 a3 52 3d
       0.027681496 0.2034501 0.14443964 0.05142517
0002c0 6e 39 1b 3e 95 ff 01 3d c0 60 00 be b5 48 1f be
       0.15158626 0.031737883 -0.12536907 -0.1555508
0002d0 73 0d bf bd 24 91 8a 3c 5b 98 30 3c 84 35 43 3d
       -0.09328737 0.016914912 0.010778512 0.04765846
0002e0 d1 70 1f 3e 93 83 9a bc f9 03 33 be 4d fa 35 be
       0.1557038 -0.018861568 -0.17481984 -0.17771263
0002f0 3e 95 ba ba 84 de 37 be 3a 48 ee 3c f5 8b 29 bc
       -0.0014235151 -0.17955977 0.029087175 -0.01034831
000300 99 82 0a bc 69 2b 60 bc 4c 3d 5d bd 2a ff 36 3d
       -0.0084539885 -0.013682225 -0.054013535 0.044676937
000310 59 58 b9 3d 52 be 2c 3e 27 2b 2c 3e 3f e2 1c 3e
       0.09050054 0.16869476 0.16813336 0.15320681
000320 31 d5 d0 3d 00 2f 47 3e d2 5d a0 3e 60 53 c0 bd
       0.10196913 0.19451523 0.3132158 -0.093909025
000330 1e 69 e8 bd 83 24 5a 3d 88 6d 2f 3d fa cb 5b bd
       -0.113481745 0.053257477 0.042829067 -0.053661324
000340 81 1e 95 3d a0 d1 c3 3d ca 06 75 3e a6 86 57 3e
       0.07281209 0.09561467 0.23928371 0.21047458
000350 74 35 99 3e 07 04 ba bd 5c a2 52 be 04 ef 01 bd
       0.29923594 -0.090827994 -0.20569748 -0.031722084
000360 c7 07 25 be c0 88 45 bc 58 c2 fe 3d 94 8f f9 3c
       -0.16116248 -0.0120565295 0.12439412 0.030463971
000370 46 34 30 3c 35 ba c1 3c 14 2d 78 3d 94 bf 04 3c
       0.01075465 0.02364836 0.060589865 0.008102316
000380 f7 5e 9e 3d 15 5b 19 3e 67 56 0c 3e d1 ca 12 3e
       0.07732957 0.14976151 0.13704835 0.14335181
000390 5c bd 8a 3e af c9 5b 3e 75 0a 23 bd dd c9 e0 bd
       0.27097595 0.21463655 -0.039804894 -0.10976002
0003a0 69 ac 41 be c3 84 88 bc 76 a1 8c 3e f3 41 27 3e
       -0.18913426 -0.016664868 0.27466935 0.16333751
0003b0 f4 11 c2 3e 03 f7 0d 3e fd d5 e9 3d 8d de ac 3e
       0.37904322 0.13863759 0.11417768 0.33763543
0003c0 83 48 3b 3e 53 09 89 3e 3e 08 a7 bd 38 08 fd bd
       0.1828938 0.26764926 -0.08155869 -0.12355083
0003d0 68 8e 66 be d6 b1 27 bd fd c2 d1 3c 5c 94 80 bc
       -0.22515261 -0.040941082 0.025605673 -0.015695743
0003e0 ea d0 d6 3d 48 2a 3f 3d bd e5 52 3d b4 9c b3 bc
       0.10489066 0.046671182 0.051488627 -0.021925308
0003f0 81 f1 81 3c 0c fd 0a 3e 39 2c f6 3d b2 29 bd 3d
       0.015862228 0.13573092 0.120201536 0.092364684
